checkpoint.pth (torch_old, 28470 bytes, 6 tensors)

fc1.weight f4 [64, 37]
00000000: 2908 313e 14ad adbd 1f47 3dbe 5e84 fdbe
00000010: da3b 83be 84a4 98bd 389e 92bd 657d 3d3e
00000020: 2364 37be 17a3 22be a601 ffbd 5c0b e4bd
00000030: 733c 20be 69b1 87bc c0d4 713e e5e9 1dbd
00000040: 44f1 a33b 5f10 82bd 9496 c0bd a0ae 1ebe
00000050: ca17 37bd 07c7 0dbe 71ce 003e 6ff1 e73d
00000060: ac47 a03d 8ba6 47be 98ca 7c3c e3c6 2b3b
00000070: 6ccc ffbb 35f2 8f3d 0d38 63bd ac23 edbe
00000080: 31a9 d13e 2568 06bf 01a7 ddbf 9d46 dcbd
00000090: ba59 f53c 926a 803e 905a 043e 4910 593e
000000a0: 739f 383e fb5f b6bb 5100 2d3e 1ea9 bd3d
000000b0: b0c7 803d 6a14 54be 470e acbe 551b b93d
000000c0: b7de ea3d b737 353e 2def 583e 80f7 8f3e
000000d0: 92ae 423e bc4e 043e a47b 0f3e d51e 703e
000000e0: f1db c13c d745 8f3d b7fd 3a3d 84ac 2d3c
000000f0: ca0e bd3d d976 403e 7318 223e 59c2 4d3e
00000100: c89d 183e 013b e5bc 3f33 56bd 1e34 473e
00000110: f391 703e 86d2 723e 5780 73ba 2c65 85bd
00000120: b712 febc 743a 003d 3cb2 c5bc 247f ff3d
00000130: 8163 1c3d 7e23 a03e caba 0bbe 6e3b 72bf
00000140: 41c2 c1be 4e80 e93e a9d6 a8be bafd b5bf
00000150: aa46 a4bd ae1a c8bc 9df9 b53d 2117 923d
00000160: a818 88be 13d8 4c3e fef9 c03d f36f 023e
00000170: feab 02bd 045a 66bb e5f0 7d3c 14c2 133e
00000180: 2442 0fbe 298a 5bbe 5463 ebbd ecc0 cdbd
00000190: 3e03 c23d 257c ab3e 314c 9ebe 6ee2 81be
000001a0: 5874 46be 5888 173d 6035 e23c 2db5 edbd
000001b0: 6184 bfbe 11bc 9ebc 40af 163d 3cbb 793e
000001c0: f373 f7be 00d4 c5bd e3b4 63be 419c 37bf
000001d0: 734c 0ebf ab14 563e 748b 8ebe 9649 d4be
000001e0: 286e 70bd 3030 0cbc 1a03 4f3d 35bc f1be
000001f0: 70e1 0dbf 5d42 07bf 09dc fbbd a28a babe
00000200: 5693 88bd 1b6f 92be 796c ebbe a436 82bf
00000210: 2ec5 03be 9cca 423d 9a64 193d efdb b43d
00000220: 31dc c6be 3946 663e 1ed8 a8be 5606 ba3d
00000230: 635c ec3d af22 2b3e 36dc cd3d 40f5 08bf
00000240: 5f69 acbe 3418 afbe 2993 5bbe b6de a53d
00000250: 661a 363d 19ef 4bbe 8f1b 93be 1d38 93be
00000260: 7acb 90be f2c0 fdbd f1e8 f7be c429 353d
00000270: 3f6e 0a3e 1c15 1dbf b15a 92be b61b 0b3e
00000280: 2cb7 31be a3b2 c9be 941b 7e3e 77c3 69bd
00000290: 1c46 91be 211c 45be 2648 8d3d e6f5 18bd
000002a0: ea94 f9bd 472b 8ebe f5ec 013d 9df5 913e
000002b0: 9c43 18be 95b8 8ebc 7fcd 17be b093 b3bc
000002c0: 5ab8 e53d 91df 10bf 0a38 21be bab6 82be
000002d0: 6627 b03e 9c28 28be 68a7 2e3e d49b 36be
000002e0: 5d88 33bd db54 3c3d 2e59 50bc bd0a 06bd
000002f0: 46d3 aabb a048 563d ee1b b53e 6ef7 4cbe
00000300: e941 15bf 6508 2bbf f7be f4bf 5ac1 b5bb
00000310: 2808 15bb b7d0 6bbd d811 f83d f7d0 efbc
00000320: 4198 b7bc 103d 013e ecc1 b43d 60f6 0dbb
00000330: 69c8 b8bc 8651 793e fd07 203c 8910 8e3c
00000340: 45ee 3b3e e8ee 393b ff4a e2bd 86fb ab3d
00000350: fe88 0e3e ba14 433e 431a dc3c 84ed 3abe
00000360: 96e1 923d 2ff7 693d 8ae3 9b3e 74f2 613e
00000370: eb9b 52bc b67a 71bb 2586 ca3e 8479 5abf
00000380: 5e8a 13bd 9f67 53bf d323 abbf c2ab 5fbf
00000390: b807 f1bd 069e 833e a054 59be fbd2 75be
000003a0: ee59 8ebd 0d4f 243e 7317 bdbd 286b 603e
000003b0: 65fd d03e 8946 f83c 7e77 42be fd05 973d
000003c0: e930 823d 527c 2cbe 3dd5 e6be 39e0 313e
000003d0: 8314 93be e084 e83d 6ecc 293d 4063 66be
000003e0: a06f 2f3e 0fb0 7bbe db04 c2bd c661 033d
000003f0: bb6f b0be f02b 933d 040b 953d 2624 64be
0.17288269 -0.08480278 -0.18484162 -0.4951505 -0.256316 -0.07453254 -0.07159084 0.18504865
-0.17909293 -0.15882526 -0.12451486 -0.11134979 -0.1564806 -0.016564088 0.23616314 -0.038553137
0.0050031263 -0.06350779 -0.094037205 -0.15496302 -0.04470042 -0.13845454 0.12578751 0.11325347
0.0782617 -0.19497125 0.0154291615 0.0026211075 -0.0078063514 0.07028619 -0.055473376 -0.46316278
0.40949395 -0.5250266 -1.731659 -0.10755656 0.029950012 0.25081307 0.12925172 0.21197619
0.18029575 -0.005565641 0.16894652 0.09260772 0.06288087 -0.20710912 -0.33604643 0.09038416
0.11468261 0.17697035 0.21184988 0.28118515 0.19011906 0.1292066 0.14012009 0.23449261
0.023664447 0.06995743 0.045652118 0.010600213 0.092313364 0.18795337 0.15829639 0.20093669
0.14903939 -0.027982237 -0.052294966 0.19453475 0.23493175 0.23713121 -0.00092888385 -0.06513438
-0.031014783 0.031305745 -0.02413284 0.12475422 0.03818083 0.31277078 -0.13645473 -0.9462193
-0.37843516 0.456057 -0.32976273 -1.4218056 -0.080212906 -0.024426784 0.088855006 0.07133318
-0.2658131 0.20004301 0.09422682 0.12738018 -0.031902306 -0.0035148868 0.015499328 0.14429504
-0.13990074 -0.21439423 -0.11493555 -0.100465626 0.09473275 0.33493152 -0.30917504 -0.25368065
-0.19380319 0.036995262 0.027613342 -0.11606822 -0.37405685 -0.019376786 0.036788225 0.2438783
-0.4833065 -0.096595764 -0.22236972 -0.717228 -0.555854 0.20906322 -0.2784077 -0.41462392
-0.058698803 -0.008556411 0.050540067 -0.47213903 -0.55422115 -0.5283564 -0.12297828 -0.36433893
-0.06668727 -0.28600392 -0.45981196 -1.0172925 -0.12868187 0.047556505 0.037449457 0.088310115
-0.38839868 0.22487725 -0.32977384 0.0908324 0.11541059 0.1671245 0.100517675 -0.5349922
-0.33674142 -0.34198153 -0.21442856 0.08099119 0.04445877 -0.19915427 -0.28731963 -0.2875375
-0.2828024 -0.12390317 -0.48419908 0.044229284 0.13518618 -0.61360335 -0.28584817 0.1358479
-0.17355031 -0.39394102 0.24815208 -0.057071175 -0.28373802 -0.19249012 0.06898527 -0.037343882
-0.12186606 -0.27767393 0.03172012 0.285077 -0.14869541 -0.017422 -0.14824484 -0.021921009
0.11216803 -0.56591135 -0.15744033 -0.25530034 0.3440506 -0.16421741 0.17056048 -0.17832881
-0.043831218 0.045979362 -0.012716575 -0.032725085 -0.005213174 0.052315354 0.3537287 -0.20016262
-0.58303696 -0.66809684 -1.9120778 -0.005546731 -0.0022740457 -0.057572093 0.121127784 -0.029274447
-0.022411468 0.1262095 0.0882605 -0.0021661744 -0.0225565 0.24347505 0.00976753 0.017341869
0.18352611 0.002837116 -0.110494606 0.08397584 0.13919446 0.19050875 0.026867991 -0.18254668
0.07171933 0.0571205 0.30447036 0.22065145 -0.012854557 -0.0036846823 0.3955547 -0.8534167
-0.03602063 -0.8257999 -1.3370308 -0.87371457 -0.1176905 0.257065 -0.21223688 -0.24006264
-0.069507465 0.1604578 -0.09232988 0.21915877 0.40818325 0.030307071 -0.18990895 0.07374189
0.06356985 -0.168443 -0.45084563 0.1737069 -0.28726587 0.11353469 0.041454725 -0.22498798
0.17132425 -0.2457888 -0.09473582 0.032075666 -0.34460244 0.07186115 0.07277492 -0.22279415

fc1.bias f4 [64]
00000000: 9459 b73d 7721 2e3e 9d3f c2bd 5c9b 4cbe
00000010: 510f cebb 2116 33bd 2c10 c8bd 50f1 61bd
00000020: c4e0 00bd 27ce c6bd b06f 743e 502f 973e
00000030: 6f3c 0f3e 6364 24be 3aaf c23d 967b 37be
00000040: 6cfc 343d e5a8 873d e4f7 85bd 8443 39be
00000050: 2912 8bbe 0363 b03d a814 0bbd c85e 3dbd
00000060: ec4e 04be 10ff 143d 745f 27bd d8ad 3ebe
00000070: cca8 9b3d c7d8 333e 3112 2dbe 2d1d 75be
00000080: 1a21 5a3d b021 443d 1a88 44bd cb56 c9bd
00000090: 347d 2fbe 38c2 a63c 515c 9ebc 3dfc 12bd
000000a0: 6b6c 2dbe dc43 3dbd c781 523d 4a42 893e
000000b0: 68a8 ad3c b0ca 07be 8d3d edbc 5d3a 6abe
000000c0: a537 5abe 5c73 463e bde3 aebe 4e67 143d
000000d0: 81cf 553b 4153 b5bb 72c2 d0bd 0d7d 83be
000000e0: 2953 f63d cb67 9bbd ea65 99bd bd4b d8bd
000000f0: 24d8 b7bd ba54 b03d 20f4 c03d e33d aabd
0.089526325 0.17004953 -0.094847895 -0.1998114 -0.006288447 -0.043722276 -0.097687095 -0.055161774
-0.031464353 -0.09707289 0.2387073 0.29528284 0.13987897 -0.1605392 0.09506078 -0.17918238
0.04418604 0.06624011 -0.06541422 -0.18092161 -0.27162293 0.08612635 -0.033955246 -0.04623297
-0.12920731 0.03637606 -0.040862516 -0.18621004 0.07600555 0.17563163 -0.1690147 -0.23936911
0.053254224 0.04788369 -0.04798136 -0.098310076 -0.17137605 0.020356283 -0.01933113 -0.035885084
-0.1693589 -0.046207294 0.051393297 0.26808387 0.021198466 -0.13260913 -0.028960014 -0.22873826
-0.21310289 0.19379944 -0.34158126 0.03623133 0.0032624903 -0.0055336063 -0.101933375 -0.25681344
0.1202758 -0.07588156 -0.07490142 -0.10561321 -0.089767724 0.0860991 0.09421563 -0.08312585

fc2.weight f4 [64, 64]
00000000: 14cc c9bd a4e4 3abd 19a6 2b3c 1649 6e3e
00000010: c843 893d 7a35 01be dba3 893e 692d 75bd
00000020: 1689 93bd 2b42 ffbd 7cd4 8cbd a551 28be
00000030: a68a 8dbe 1b29 dbbd 3de6 763e fc1c 343d
00000040: f47c 0ebc fea1 1dbf 4823 ca3d 7843 f6bb
00000050: 3ee6 403e 5292 f3bb 7f49 00be f064 72be
00000060: 824d 9cbe e047 c73d 6f0b 6bbe 577f 913d
00000070: 91f4 d9be a95d eabd 5eb5 533e f60a 64bc
00000080: 0bbc c3bb 95b3 a1bd 5ab4 fc3d 0e87 62bd
00000090: e15f d03d 8b2e 2ebf c5ed c03d 68d3 7e3e
000000a0: f212 d83d 0153 0cbe 2092 613e 5f75 e7bd
000000b0: 4c71 94bd 9fe6 133d 1c4d ee3d 51d0 d53d
000000c0: c3fe 963d 5957 d13e e83a fc3c 60b4 e43d
000000d0: 294c d43d 02cd 56bd f9b3 30bd 505f 87bc
000000e0: 3343 2639 8e53 4d3e 7743 5bbe 3a63 80bd
000000f0: 3272 053e b6e7 473f 53d8 67be ff30 0a3e
00000100: 5f43 75bd 2dd6 9e3c 749f d9bd af3c b2bd
00000110: 05e0 ce3d 0ef6 7b3a 4291 36be 12d0 1abc
00000120: 0078 25be ec8b c0bd 2959 46bd caf7 453e
00000130: 0087 96be f762 ad3c 9b62 b23e a56e 92be
00000140: 4a56 ddbd c76f 323d 44f2 3ebe 9349 ebbd
00000150: 587c bcbe fb56 c5be 5417 d3bd 43d7 60be
00000160: dc23 803e 1cb3 813d 2ad5 dcbe 636d 0ebe
00000170: 685a 4ebe b4d1 ba3c f79c 9dbe dd8e d43d
00000180: aa4f 463e db64 c83d 49c4 a0bd e6fc 0cbe
00000190: cc6d d23c 3830 e1bd 0f51 893e b490 fcbd
000001a0: ad42 52bb 1867 d8bd 025d 983d 7fcb ffbd
000001b0: 6419 74be 1472 393d e522 83be 97e6 023e
000001c0: a2cd b9bd ab8b 95bd a710 9b3d 840a fe3d
000001d0: 7166 f6be 620c 023e 6ba8 343e b4c4 583e
000001e0: d49f 5cbe 983d 4b3e 3098 bc3d 6088 d3bd
000001f0: 7e7a cc3c da96 213d cea3 92bd 5cdc 5abe
00000200: 5bad 713c 84ff 06be 9a58 85be 00d4 aebc
00000210: e3c0 37bd 57d5 983c feef c93e 9067 3e3e
00000220: 1080 e83d 6714 e3bd f0b7 1b3d 6a6d 103e
00000230: ec00 7c3d 8ff5 06be ff9b 393e da7c c6bd
00000240: 48bb 90be 94b6 8e3d 0998 7bbe 079d 3ebe
00000250: 1ea1 e0be 52d2 253e 5094 e0bd 34d9 ff3e
00000260: 45f5 d83d 0dce e23c e607 e73e d54b 16be
00000270: 0e2f 1b3e 1938 153e b792 1cbd 37b8 cf3c
00000280: dfd1 1bbe 0c06 6d3e eb5a b7bd 2428 443d
00000290: b9cc fb3d fdbb 8ebd 759f 453e 74a1 813d
000002a0: 1794 0c3d 57b0 723e b758 2cbe 4261 11be
000002b0: eab7 153c f015 02bd cb9d 8a3d a6b7 84be
000002c0: 2c8d d03d 27eb b6ba 35ab aabe 5abf 57be
000002d0: 2504 abbe 9c01 463d ac7b 2e3e be05 7fbe
000002e0: 86be c7be e1f6 483e 1c6b 9e3d 893e aabd
000002f0: 3c93 be3d acef 56be cf1d 043e 41de 12be
00000300: d053 ca3e afcd 08be b7ca bebe 3d08 073e
00000310: b4bc 203e d7ce b7bc e696 6b3d 51d7 36be
00000320: a0ac 94be f0f1 e73c 29fd 60bc af7a 4d3e
00000330: 91b1 44be 0921 8bbd 8792 a2be 790a 72be
00000340: 994b aa3d 66f6 7dbd b1b5 b83e 2dfd ae3d
00000350: da97 fabd abbb 00be 7d71 433e 9ae2 043f
00000360: 0c9e ed3d 5e16 e4bc beb4 0fbe 7373 bfbe
00000370: b95d 383e 465a 07bd 55fb 7abe 1831 85be
00000380: b492 8abd 7eba 88be 1485 a4bd dbce 853e
00000390: 0f03 c4bd 45ac 0a3f f917 8b3e f65a 033e
000003a0: 1ebb 053e 3a1a 673e b9a3 bb3b 58a6 8cbd
000003b0: 7c04 bfbd 0ca7 083f 9375 91be eeec d93d
000003c0: 1e0c 533d 3866 883b af56 013e 152f c4bd
000003d0: 66d0 3ebd c57b 863e ea4f 65be 0adc 483e
000003e0: e5aa e83d 4e56 04bd 6d72 3fbb 3da7 bbbe
000003f0: 4e09 553e 0fb7 893e 25eb 123f 234e c23e
-0.09853378 -0.045628205 0.0104766125 0.23270068 0.06702381 -0.12618056 0.26882824 -0.05985776
-0.072038814 -0.124637924 -0.06876466 -0.16437395 -0.27644843 -0.107011996 0.24111266 0.043972954
-0.008696783 -0.61575305 0.098700106 -0.007515367 0.1883783 -0.007433214 -0.12528037 -0.23671317
-0.30527884 0.09730506 -0.2295358 0.07104366 -0.42569402 -0.114436455 0.20674655 -0.013918629
-0.005973344 -0.07895581 0.12339087 -0.05530458 0.101745375 -0.6803977 0.09420351 0.24885333
0.105504885 -0.13703538 0.22028399 -0.11301684 -0.07248172 0.03610861 0.11635801 0.10440124
0.07372811 0.40886953 0.030789807 0.11167216 0.10366089 -0.052441604 -0.043140385 -0.01652494
0.00015856027 0.20051405 -0.21412455 -0.06268926 0.13031843 0.7808794 -0.22641115 0.13495253
-0.059878703 0.019389236 -0.106261164 -0.08702981 0.10101322 0.0009611555 -0.17828849 -0.009449022
-0.16159058 -0.09401688 -0.048424874 0.19332805 -0.29399872 0.021165354 0.34840855 -0.2860004
-0.10807474 0.04356363 -0.18647105 -0.114886425 -0.36813617 -0.38542923 -0.10307184 -0.21957116
0.2502736 0.063329905 -0.4313138 -0.13908915 -0.20151675 0.022805072 -0.30783817 0.103788115
0.19366327 0.09784862 -0.078499384 -0.13768348 0.02568712 -0.10995525 0.26819655 -0.123322874
-0.00320832 -0.105665386 0.07439615 -0.12489986 -0.23837811 0.04527481 -0.2561256 0.12783276
-0.090724245 -0.0730203 0.075715356 0.124043494 -0.48125032 0.12700036 0.17642371 0.21168786
-0.21545345 0.19847715 0.09208715 -0.10328746 0.024960753 0.039450504 -0.071601495 -0.21373123
0.014750804 -0.13183409 -0.2604416 -0.021341324 -0.044861685 0.018656416 0.39440912 0.18594193
0.11352551 -0.11087876 0.038017213 0.14104238 0.061524317 -0.1317961 0.18125914 -0.09691782
-0.28267884 0.06968418 -0.24569716 -0.18614589 -0.43872923 0.16193512 -0.10965788 0.499704
0.105936565 0.027686143 0.45123214 -0.14677365 0.15154669 0.14572181 -0.038225856 0.025356395
-0.15216778 0.23146838 -0.08952888 0.047889844 0.12294907 -0.0696945 0.1929911 0.06329623
0.034320917 0.23700081 -0.16830717 -0.14197257 0.009138087 -0.031759202 0.06768378 -0.25921363
0.101831764 -0.0013955579 -0.33333746 -0.21069089 -0.334016 0.04834138 0.17039365 -0.24904534
-0.39012545 0.19625427 0.07735273 -0.08312709 0.093054265 -0.20989865 0.12901996 -0.14342596
0.3951707 -0.13359712 -0.37264034 0.13186736 0.15696985 -0.022437496 0.057516955 -0.17855574
-0.29037952 0.028313607 -0.013732233 0.20066331 -0.19208361 -0.0679341 -0.31752416 -0.23636808
0.083152 -0.062002562 0.3607612 0.08544383 -0.12235995 -0.1257159 0.19086261 0.51908267
0.11602411 -0.027842697 -0.14033791 -0.37392768 0.18004502 -0.033045076 -0.24509938 -0.26014018
-0.06766263 -0.26704782 -0.08033195 0.2613438 -0.09570896 0.5416911 0.27166727 0.12827668
0.13059661 0.22568598 0.0057263044 -0.06867665 -0.09327027 0.53379893 -0.28410015 0.10640894
0.051525228 0.004162576 0.12630723 -0.09579293 -0.046585463 0.26266304 -0.22393766 0.19615188
0.113607205 -0.03230887 -0.002921249 -0.3665103 0.2080433 0.26897475 0.5739005 0.3795024

fc2.bias f4 [64]
00000000: a5d3 d63a bd2c 7b3e e690 b33e 589f 99be
00000010: 2cba a4bc 38e8 bebe 63c3 cdbc 7ae9 e1bc
00000020: e3d8 323e e83a 553f ebcb 403c 5149 023f
00000030: d67c 0d3f 51a4 2bbe 6615 9cbd 7be0 14be
00000040: 8c50 b23b 08c4 683d 50bd 0c3d f0e9 4a3f
00000050: 6b23 233f 80a6 323f f1fc 91be 522f a5be
00000060: 9383 e83b ed4f e6bd f968 c33b d507 2fbe
00000070: 7345 5b3e 5ff1 2e3e 5e16 d2bd 3c64 873e
00000080: ddcb 3a3e 34fd d93e e1ed d2bd 8eda 8bbd
00000090: a57b 2c3d be4a a4be 0cbb 443f 091c c63d
000000a0: ce2a 013c 4745 6b3f 1e37 493e b729 fd3c
000000b0: 135a ffbb a168 78be 6953 293f 26e2 a7be
000000c0: 3e4a 1c3e 4f01 bf3d 17ce a1be f899 e33d
000000d0: bdf1 25ba 5090 9dbe db5b 243e ee05 453e
000000e0: bb7a a3be ef71 49be 62d8 023e 22cd 2fbe
000000f0: ac92 a6bd 8a12 103f e5f7 1f3e ce96 313d
0.0016389979 0.24528785 0.35071486 -0.30004382 -0.020108305 -0.37286544 -0.025117582 -0.02757715
0.17465548 0.8329301 0.011767368 0.5089312 0.5526861 -0.167619 -0.07621269 -0.14538758
0.005441731 0.056827575 0.03436023 0.7926321 0.6372592 0.6978531 -0.2851329 -0.32262665
0.007095763 -0.112457134 0.0059634415 -0.17092831 0.21413212 0.17084263 -0.102581725 0.2644366
0.1824183 0.4257599 -0.10299278 -0.068287954 0.042110104 -0.32088274 0.7684791 0.09673316
0.007883741 0.91902584 0.19649932 0.03090368 -0.00779272 -0.24258663 0.661429 -0.32789725
0.15262696 0.093264215 -0.31602547 0.111133516 -0.00063302723 -0.30774164 0.16050665 0.19240543
-0.31929573 -0.19672368 0.12777856 -0.17168096 -0.08133444 0.5627829 0.15621908 0.04335671

fc3.weight f4 [4, 64]
00000000: 164d fa3e 11fc f03d 1e10 e43d 29a4 49be
00000010: e3f8 dfbe 3d2d 48be b511 923d dd01 8fbe
00000020: 3d20 953d 9fe6 713e df3c d0bd 3f1e a03e
00000030: ef25 473e c89a 9ebc 3050 1cbd b4ae c83e
00000040: 9243 8a3e e1e6 c83d c953 753e bd0c 9b3e
00000050: ef97 333e 4d4a dd3e e3fe f5bc 0a7d b0bd
00000060: 3db5 a2bd 30a0 a8bd 114b 8cbe 1390 87be
00000070: 363a 473e 46e7 b33e 901c 2c3e d9e2 f33d
00000080: 63d0 3a3e 2c4b 8b3e 5622 053d 91a8 c2bc
00000090: b5ad d23e 2ae2 99be db4d 7d3e 6282 b63d
000000a0: 71c5 4f3e 27bb 863e 0d25 8aba 15ff d83a
000000b0: 7d06 b9bd b118 10be bf01 813e 1ec0 8abe
000000c0: 7ae3 533d a14d 023e fff8 4cbe 4db2 793e
000000d0: 5e51 b83e ca6f 52be d348 a63d 051b bd3d
000000e0: 9295 09be 2cf2 2c3e ea7d 173e 8946 84be
000000f0: 60cd ecbe 8735 5d3e a639 a4be 6fce 833e
00000100: 15fd 0c3f 06e6 383e 789a 293e ac2a 84bd
00000110: 39d0 f23d 7a89 22be 03c2 073e 9d58 223e
00000120: ede5 bd3c 93e3 533e 6e49 223e 7956 ac3e
00000130: e40c 623e 2388 863b 5dd4 90bb 7a53 8d3e
00000140: 739b 733e dfd4 713e ae07 a03e 2459 783e
00000150: 7174 913e f117 e03e 8f62 89be ed4f 9dbd
00000160: b2ad 7d3d 00c1 7cbd ccbb 5ebd 1e15 a3be
00000170: adea c43e 4b37 853e 7b24 a73d d059 213e
00000180: 00a2 623e c0eb b43e 6314 7b3d 8a00 d0be
00000190: ba55 c23e a525 953d edab 873e 4d3c 8c3d
000001a0: 4606 943d c6d9 823e 8c3c 023e 4fe7 303e
000001b0: 91db 313c 7d11 403e c0d0 863e 6422 a33d
000001c0: 9889 e33d 6011 053e d65a 24be bed6 903e
000001d0: 100c e53e 89ff 9fbd 569f 0dbd f86c 80bd
000001e0: 256c 65be 3e02 8dbe 4ee4 563e 1771 9fbe
000001f0: a87e a6be 7e0f 173e ad9e e63d 1dcd a93e
00000200: 4a6d 453e f395 4a3e 998b 873e 2719 e43d
00000210: 8741 cf3e 009d dbbc b4a9 a53e afa3 febe
00000220: fc8f cb3d cc6d 883e 5216 393d 178e 743e
00000230: b442 a93e ef94 f0be 665c 98bd dd7b 253f
00000240: 387b 8cbe b704 d83d 354c 8d3e e942 773e
00000250: df9d 513e 2506 ab3e f4e4 b6be acf4 44be
00000260: 4b2f 2f3e 9eaf 3bbd fed8 1cbe 8661 62be
00000270: 684d 483d 58ff 6a3e 3c7d b4be f334 03be
00000280: 8054 af3d defb 753e d17f da3e 14e7 e03e
00000290: bdfd be3d debe 06be cd3a 553e 96bf b43c
000002a0: 8039 443e 57ed b73e 8156 673e 7ed1 953e
000002b0: b1aa 8b3e 8fe6 24bd 6cd6 813e 516e 923e
000002c0: be1e 293d 69fb cf3d 6c2f a7bd 1715 0e3f
000002d0: 1a99 55bd 23e5 33be cf1a 443e 641d 6d3d
000002e0: 3e09 36bf ff14 b3be 2d6e c83d 9aa0 ba3d
000002f0: 41b7 aebe 5cd1 a43e 13f2 82be 422b 89be
00000300: ff5f 253f 59ab dc3d e44e c63d ca64 b2be
00000310: d77c 343e 0bee 363d ce1c e7be 0cc5 b73e
00000320: bbf1 2b3e 375e a43e 240d ce3d 51a6 933d
00000330: 9d7f 823e 5990 e2be 00be 723d cdda cabd
00000340: 454b 4c3f 00c2 dfbd 22cd 863e 02b2 9c3e
00000350: e432 1e3e 3fb7 8c3e 55d0 83be 3bb5 423d
00000360: f94f 443e 8473 cabd 0b65 29bf 112b 05bf
00000370: 150c 9d3d 848e 1d3e 638a eebe 501f 133e
00000380: 4ab7 c1bd 6cbe a13e d2c9 453d 4c0e e6bc
00000390: 777a b23e da35 0f3d 43e4 a73e 2a3f 933e
000003a0: 0fbc e13e 8707 a33e 6a08 293e d23b 39be
000003b0: c60b ea3d dbcd a9be 0871 3f3e d8be bdbe
000003c0: 30e5 833e 6ce4 5c3d fbb4 673d 89ca b13e
000003d0: f07d bcbe 6caf 34be 3dc6 9e3e fad6 143e
000003e0: 0832 84be e086 debe 9447 3f3e 04cc c9be
000003f0: b241 18be a95a 1b3e 76cd 19bf 5428 ec3b
0.48886937 0.11766828 0.111358866 -0.19691528 -0.43744573 -0.19548507 0.071322836 -0.2793111
0.072815396 0.23623131 -0.1016786 0.31273076 0.19448064 -0.019360915 -0.03816241 0.39195788
0.27004677 0.09809662 0.23957743 0.30283156 0.17538427 0.4322075 -0.030028766 -0.08617599
-0.07944725 -0.08233678 -0.2740102 -0.26477107 0.194558 0.35137385 0.1680777 0.11908502
0.18243556 0.2720579 0.03250345 -0.02376202 0.41148153 -0.30055362 0.24736731 0.08911587
0.20290162 0.2631466 -0.0010539606 0.0016555513 -0.09034441 -0.14071919 0.25196645 -0.270997
0.05173061 0.12724926 -0.2001686 0.24384423 0.35999578 -0.20550457 0.08119359 0.09233669
-0.13435963 0.16889256 0.14794126 -0.25835064 -0.4625044 0.2160245 -0.32075232 0.25743434
0.5507367 0.18056497 0.16562831 -0.064534515 0.118561216 -0.15872756 0.13257603 0.15854116
0.023180926 0.20692281 0.15848324 0.33659723 0.2207523 0.004105584 -0.004419847 0.2760275
0.23789768 0.2361636 0.3125586 0.24252754 0.2840915 0.43768266 -0.26833007 -0.0768126
0.061933227 -0.061707497 -0.054378316 -0.3185205 0.38460293 0.26018748 0.08161255 0.15756917
0.2213211 0.35336113 0.06129874 -0.4062541 0.3795603 0.07282571 0.26498356 0.06847439
0.07227759 0.25556773 0.1271841 0.17275737 0.010855571 0.18756671 0.2633114 0.07965544
0.11110228 0.1299491 -0.16050276 0.28288835 0.44735765 -0.07812411 -0.034575783 -0.06270784
-0.22404535 -0.27540773 0.20985529 -0.31140968 -0.32518506 0.14752004 0.11260734 0.33164302
0.19279972 0.19783764 0.26473692 0.1113761 0.4047968 -0.026808262 0.32356036 -0.49734256
0.09939572 0.26646268 0.045187302 0.23882328 0.33058703 -0.46988627 -0.074394986 0.64642125
-0.27437758 0.10547774 0.27597204 0.24146618 0.2047038 0.33403125 -0.35721552 -0.1923396
0.17107885 -0.04582178 -0.15317151 -0.22107515 0.048901945 0.22948968 -0.35251796 -0.12813167
0.08561039 0.24021861 0.4267564 0.439263 0.093257405 -0.13158748 0.20823212 0.022064012
0.1916256 0.35923263 0.22591592 0.29261392 0.27278665 -0.04025894 0.25358903 0.2859979
0.041289084 0.101553746 -0.08163342 0.5550093 -0.052147962 -0.17567877 0.19150852 0.057889357
-0.7110785 -0.34976956 0.09786639 0.091126636 -0.34124187 0.3219098 -0.25575313 -0.26790816
0.64599603 0.107748695 0.09683016 -0.3484252 0.17625748 0.04466061 -0.45139164 0.35892522
0.16791432 0.3210313 0.100611 0.07209457 0.25487986 -0.44250754 0.05926323 -0.09905014
0.7980235 -0.109256744 0.2632838 0.3060456 0.154491 0.27483556 -0.25744882 0.047536116
0.19171132 -0.09885314 -0.66169804 -0.5201884 0.0766832 0.15386397 -0.46589956 0.14367414
-0.09458788 0.31590593 0.048288174 -0.02808299 0.34859058 0.034963466 0.32791337 0.28759128
0.4408879 0.3184168 0.16507116 -0.18089226 0.11428027 -0.33164868 0.18695462 -0.37059665
0.25760794 0.053928778 0.05656908 0.34724835 -0.36814833 -0.17645043 0.3101062 0.14535132
-0.2581942 -0.43462276 0.18679649 -0.39413464 -0.14868811 0.15171303 -0.60079134 0.007206956

fc3.bias f4 [4]
00000000: bf49 213f 4ca0 cb3e b10b df3e 959d d33e
0.6300315 0.39770734 0.43563607 0.41331163
