saved_model_weights.pth (torch_old, 28470 bytes, 6 tensors)

fc1.weight f4 [64, 37]
000000 e1 14 1a be 75 71 a2 3d e1 8f c6 bd 6b e0 09 be
       -0.15047027 0.079317965 -0.096954115 -0.13464515
000010 0f 81 cd bd b3 c3 58 3d 33 0a d7 bc fb a2 b8 3d
       -0.100343816 0.05292101 -0.02624998 0.09015461
000020 3e e4 12 be 97 e4 11 bf bc 0a eb 3c dc 01 0e be
       -0.1434488 -0.56989425 0.028691642 -0.13867897
000030 e0 04 71 bc 82 78 fc be d1 e7 83 be 68 e4 76 3c
       -0.014710635 -0.4931069 -0.257628 0.015069105
000040 c4 e8 a6 3d 48 a7 1b be a0 1a 9b bd 45 4d 44 bd
       0.08149865 -0.15200531 -0.07573438 -0.047925252
000050 7a fd 44 3e 55 4e 7e 3d 97 10 8c 3d f1 b3 12 be
       0.19237319 0.062086422 0.06839102 -0.14326455
000060 9a f3 02 be 68 7b 92 bd 84 d9 ad 3e df 99 4b be
       -0.12788239 -0.07152444 0.33955014 -0.19882916
000070 0a 30 cd be 8d 2f 3c be ec 00 2a 3d dd f4 78 3d
       -0.40075713 -0.18377514 0.041504785 0.060780395
000080 5b f6 d1 3c c9 4d 6d be 13 58 d0 be 95 70 88 bd
       0.025630167 -0.23174204 -0.40692195 -0.06662098
000090 e0 20 1c 3b 32 3d 60 3e 5a fa 01 bd d6 7e 86 bd
       0.0023823306 0.21898344 -0.031732894 -0.06567161
0000a0 7b 05 ff 3d a1 c6 e5 be 6f 0e c4 3d 42 9e a6 be
       0.12452217 -0.44878104 0.095730655 -0.32542616
0000b0 a0 34 f4 3c 7b 93 89 be 5b 70 21 bf 10 6c 89 bd
       0.02981025 -0.2687033 -0.63062066 -0.067100644
0000c0 6e 26 0e bd a8 3e ca 3d f1 0c 64 3e 68 d2 fc 3c
       -0.03470462 0.09875232 0.22270562 0.030862048
0000d0 cd ae 67 3d 13 bf 9d bd 4e 03 d2 3d 8b 54 0d bd
       0.056563187 -0.0770246 0.102545366 -0.034504455
0000e0 c7 46 fc 3d ed 23 1e 3d 69 12 0f be 83 d3 ea bd
       0.12318187 0.03860848 -0.13971867 -0.11466124
0000f0 e2 a4 42 be 54 58 63 3e fb 5e ec bd fd d0 50 bd
       -0.1900821 0.22201663 -0.115415536 -0.050980557
000100 30 62 13 3d 56 f0 1f 3e 10 7d 29 3e 98 15 e6 bd
       0.03598231 0.15619025 0.16551614 -0.112345874
000110 53 1c 8e 3e bb 7b 24 3e e3 70 8f 3d 4e 3d 9d 3d
       0.27755985 0.16062824 0.07003953 0.076777086
000120 b2 9a ea bc 14 9f 57 3a 30 1c b3 3d ac e4 23 3d
       -0.028638218 0.00082253036 0.08745611 0.040013
000130 4e cb 88 3d 8a 8f 4a 3e a0 22 77 3d 22 07 5f bf
       0.06679402 0.19781318 0.060335755 -0.8712026
000140 bf 64 a9 bc fe 62 df 3e d1 4e be 3d 65 d6 f1 be
       -0.020677922 0.43630213 0.09292377 -0.47233883
000150 25 ac 83 bd 46 9b c8 3d 9b 8a a8 bd 15 55 ce bd
       -0.06429318 0.09795241 -0.08229562 -0.10074822
000160 1d 7e 5e 3a a1 99 eb bd 7b c7 c0 3d dd 49 a6 3d
       0.000848742 -0.11503912 0.09413048 0.08119557
000170 ab 0c 02 3d f3 f8 da 3d 60 c6 59 be ca ff 76 3d
       0.031750362 0.106920145 -0.2126708 0.060302533
000180 44 a3 55 3d 71 8a 54 be c3 d7 a3 3d a4 e0 8a be
       0.052157655 -0.20755936 0.08000138 -0.27124512
000190 c0 d2 af 3d 50 4d 76 3e 78 c7 8b 3e cc 2e 49 bb
       0.08585119 0.2405293 0.2730062 -0.003069806
0001a0 bb c0 f4 be f6 d5 bf 3d 7b a0 75 3d 0b 8a a9 bd
       -0.47803292 0.09366982 0.0599675 -0.08278283
0001b0 e7 f4 28 be 35 9f 33 bb e1 4e ea 3c f8 ea f5 ba
       -0.16499673 -0.0027408127 0.028602066 -0.0018762043
0001c0 6a 80 13 3e d3 86 35 3e cc 8b 3e bd 01 b8 e3 3d
       0.14404455 0.17727213 -0.04652004 0.1111908
0001d0 9a ff e6 bd ff e7 61 be 1b 2c 8c 3e f9 af 1b 3d
       -0.11279221 -0.22061156 0.273774 0.038009617
0001e0 1d 7d 30 bf 66 ea b5 3d c7 4c a6 bd 10 ef 81 be
       -0.6894091 0.088825986 -0.08120113 -0.25377703
0001f0 23 ca 76 3e 60 5a d5 3d f4 e4 51 3d cf 2d 05 be
       0.24100547 0.10417628 0.051243737 -0.13005756
000200 9a 12 10 3b a0 8c 01 be 5a ca 21 bf 10 3a be 3d
       0.0021983744 -0.126513 -0.6319939 0.09288418
000210 c5 32 ae 3d 54 27 c7 bd 9b b9 37 be bd df 5d bd
       0.08505777 -0.09724298 -0.17941897 -0.05416845
000220 a4 8a aa 3c b9 2c e4 3d 5d 43 86 bc 29 22 48 3e
       0.020818062 0.11141343 -0.016389543 0.19544281
000230 1c 84 77 be 49 71 5e 3e d2 a8 d7 3e 2c b3 c4 bd
       -0.2417149 0.21722902 0.42120987 -0.09604487
000240 10 e1 cb be c6 67 86 bf b7 e0 1e bc fc 5f 85 3c
       -0.39820147 -1.0500419 -0.009697131 0.01628112
000250 fd 0c f4 bc 11 84 3b be fa f4 a3 be fb a8 38 3d
       -0.02979135 -0.18312098 -0.3202284 0.045083027
000260 74 21 e1 3d f4 10 6f be 21 4f 48 3e ba f8 8c 3e
       0.10992709 -0.23346311 0.19561435 0.27533513
000270 70 62 91 be 0b 86 55 be 4e 8c da 3d a3 41 84 bd
       -0.28395414 -0.20851915 0.10671292 -0.06457832
000280 c7 d3 01 be d8 82 b7 be 33 de 01 bf 51 cc b5 be
       -0.12678443 -0.35842013 -0.50729674 -0.35507444
000290 aa 3c e4 3c a5 30 21 3e fd e7 ff bd 8c 11 d8 3e
       0.027860958 0.15741213 -0.1249542 0.42200887
0002a0 7d 1e 80 bd 56 d3 84 bd d8 fa 9a bd 9c 3c e1 3e
       -0.06255815 -0.06485622 -0.07567376 0.43991554
0002b0 47 a6 d7 bd 12 f9 0a be 3b 08 a5 3d 5c 62 39 3e
       -0.10529762 -0.13571575 0.080582105 0.18103927
0002c0 61 78 c6 bd d4 bc 0c bf d7 09 0e bd 1c e3 71 3d
       -0.09690929 -0.5497563 -0.034677353 0.05905448
0002d0 23 84 96 3e 7d c0 c7 be 54 bd d4 bd e9 8c 17 bd
       0.29397687 -0.39014044 -0.10387674 -0.036999617
0002e0 c3 ea 2b 3b 9b 85 0e 3d 5f 80 22 be 46 c2 dc 3d
       0.0026232458 0.034795385 -0.15869282 0.10779242
0002f0 e1 86 80 bd b8 00 0b 3d 69 41 6b 3e 9b 44 eb 3d
       -0.06275726 0.033936232 0.2297417 0.11487695
000300 db ae 86 be 35 7b 88 be 60 ea 70 bf 57 50 2b bd
       -0.2630528 -0.266565 -0.9410763 -0.041824665
000310 6e f0 0b 3e af f1 48 be 05 83 a4 be 95 75 af be
       0.13665935 -0.19623445 -0.3213121 -0.34269395
000320 3b 07 2e 3d c7 3f 3e 3e da a4 20 be 11 45 bc be
       0.042487364 0.18579017 -0.15687886 -0.36771443
000330 f8 3f 2b be 6f dc 04 3e c7 26 0d be ae bd 56 3e
       -0.16723621 0.12974714 -0.13784324 0.20970795
000340 05 6c 05 be 39 13 54 be 21 75 76 be b2 d1 98 3d
       -0.13029487 -0.20710458 -0.24068119 0.07461871
000350 60 53 c1 bd 75 09 91 3e 53 f5 73 bb c0 a3 90 3d
       -0.09439731 0.28327528 -0.0037225082 0.07062483
000360 2c f1 de be 43 22 06 3d 2c 09 c8 bd db 1c 52 3c
       -0.43543375 0.03274752 -0.097673744 0.0128242625
000370 97 28 64 3c e6 77 ae bc 68 b5 19 3e bc 78 a6 be
       0.013925693 -0.021297406 0.15010607 -0.32513988
000380 3b 69 48 bc 48 75 a7 be 8a 94 aa be 86 9a c3 3d
       -0.01223212 -0.32706666 -0.3331645 0.095509574
000390 32 db 31 be d0 fe 55 bb 8a ae 3c be b5 cc 2a 3d
       -0.17368773 -0.00326531 -0.18425956 0.04169913
0003a0 74 4f 8f 3e 36 5e 9d bd 32 e9 04 bd 5a cf 4a be
       0.27990305 -0.07683985 -0.032448955 -0.19805661
0003b0 15 25 3a be 2c 11 09 bf e4 9a fb 3d 80 83 24 bd
       -0.18178208 -0.5354183 0.122854024 -0.04016447
0003c0 1e 2a 35 3e bd 82 a2 3e 25 96 0e 3e d9 d3 cd be
       0.17691848 0.3174037 0.13924463 -0.4020069
0003d0 18 d9 31 bd b7 ee 31 be ab 9d 34 bd 90 ab 53 be
       -0.043419927 -0.17376219 -0.044095676 -0.20670915
0003e0 28 21 ac be c9 c9 d8 3d 84 5e 81 bd b8 a9 4d be
       -0.33619046 0.105853625 -0.063168555 -0.20084274
0003f0 59 46 1b 3e f3 66 e4 be 5c 24 fa 3c 48 9a b5 be
       0.15163554 -0.44609794 0.030534916 -0.3546927

fc1.bias f4 [64]
000000 10 82 33 3d c1 fe 78 bd 62 e5 26 be aa c2 94 bd
       0.04382521 -0.060789827 -0.1629844 -0.07263692
000010 2b 89 43 3e ba c8 bf bd 39 43 39 be c9 0f ee 3c
       0.19095294 -0.093644574 -0.1809205 0.029060261
000020 7f 51 af bc cf 39 8e be 2f 7f 8d 3d 69 b0 80 3e
       -0.021401165 -0.2777848 0.06909024 0.2513459
000030 71 4a 88 3e 64 1f 97 3e ef 2d ad bd 3c de 8c bd
       0.26619294 0.29516137 -0.08456027 -0.06878325
000040 1c 94 c0 3d 8b 00 26 3d f8 51 c3 3c 60 c3 aa bd
       0.094032496 0.04052786 0.023842797 -0.08338046
000050 2b 3f e6 bd e3 03 92 3d f3 59 b6 bd 07 08 a0 bd
       -0.11242517 0.071296476 -0.08903875 -0.07814031
000060 57 fa e2 bd 2f 4d aa 3c 6d f2 e1 bd cf ff 84 be
       -0.11082905 0.020788757 -0.11032567 -0.25976416
000070 e9 bb f4 3d 64 b5 1b 3e cf 34 5e be 27 55 0a be
       0.119499035 0.15205914 -0.21699832 -0.13509046
000080 db 49 fe bc ca 3a 50 3c 06 dc 41 be 89 55 f5 3d
       -0.031041076 0.012709329 -0.18931589 0.11979205
000090 e4 1e 0b be ca 5b 23 bd ee 3e 1e 3d 91 87 fe bd
       -0.13586003 -0.03988246 0.038634233 -0.12428201
0000a0 bc 3d 7e bd 2c 9a 80 bd 3a 57 5f be 17 30 62 3e
       -0.062070593 -0.06279406 -0.21810618 0.22088657
0000b0 cd b6 a7 3d 4f 52 c1 bd 09 9d 72 bd 8d 60 c1 bd
       0.08189163 -0.09439527 -0.05923179 -0.09442244
0000c0 1f fe 2b be 2c 29 c7 3d 71 52 8a be 8c 39 3a 3c
       -0.16796158 0.0972465 -0.27016023 0.011366259
0000d0 73 5d 92 bd db 0b b6 bc 73 15 7d be b1 5d e3 ba
       -0.0714673 -0.02222245 -0.24715213 -0.0017346648
0000e0 e3 58 ed 3d e0 e7 cb bd cb a5 7f bd 2f 7b dc bd
       0.115892194 -0.09956336 -0.062413972 -0.10765683
0000f0 be 8c 49 3b 55 1a 44 bc f9 8d 30 3e 4d 7d 9a 3d
       0.0030754055 -0.011969169 0.17241658 0.075434305

fc2.weight f4 [64, 64]
000000 f6 55 1f 3d a3 df 86 3c 90 54 cf bc 71 7d 01 bd
       0.038900338 0.01646406 -0.025308877 -0.03161377
000010 59 d3 33 3e d8 8b 0b be d4 bd 2d 3e 45 98 96 3d
       0.17561091 -0.13627565 0.16966945 0.07353262
000020 64 44 c1 3c af 43 13 3d f2 e1 4e be c5 be 8b be
       0.023592182 0.03595322 -0.20203379 -0.27293983
000030 00 75 4b be fc 53 86 3d 53 41 59 be 2b 83 64 3d
       -0.1986885 0.065589875 -0.21216325 0.055789154
000040 61 52 27 be 0c a9 91 be d7 2a b4 3b b4 cb 24 3e
       -0.16340019 -0.28449285 0.005498271 0.16093332
000050 f4 d9 5f 3d 4c d2 45 be 21 0b d9 3c 99 20 d5 3d
       0.054651216 -0.19318503 0.026494564 0.10406608
000060 27 fd 66 be 1c d1 9d 3e ac 14 8d bd 61 18 e1 3d
       -0.22557507 0.308236 -0.068887085 0.10990978
000070 5f cc d1 3c cf ca 47 be ef c2 93 bd f3 ed 84 bc
       0.025610147 -0.19510959 -0.07214915 -0.016226744
000080 08 b7 aa 3d 5b dc 7d 3f c8 04 3b 3d 3f e8 33 bf
       0.08335692 0.9916436 0.045658857 -0.70276254
000090 6f 44 15 be 45 9b 89 3c 75 2d 4d be 2c dc 2a 3c
       -0.14576887 0.016797671 -0.20036872 0.01042847
0000a0 f7 ba 1d bf e1 23 42 bd 2a 60 72 be b5 32 36 3d
       -0.6161341 -0.047397498 -0.23669496 0.04448195
0000b0 f7 cc f7 3d 97 7b 3b be ca 5c b3 bd b9 31 26 bf
       0.12099641 -0.18308865 -0.087579325 -0.6491962
0000c0 37 70 b5 bd 24 fb a8 bd 54 17 9b 3d ad c5 cf 3d
       -0.08859294 -0.08251026 0.07572809 0.101451255
0000d0 08 ae 23 bd 7f b5 46 bf 0c 17 aa 3d 18 9f d8 bd
       -0.03996089 -0.7762069 0.08305177 -0.1057722
0000e0 b6 9d 05 be b0 ca a1 bd 71 3b eb be 2b 50 8d 3e
       -0.13048443 -0.07899988 -0.45943788 0.27600226
0000f0 f6 39 33 3e 98 2f c9 3d 85 0f 0a 3e c4 4a 8a be
       0.17502579 0.09823531 0.13482483 -0.27010167
000100 d0 70 b8 bc ce 55 d2 3d d5 9a b8 be 3a 3c 79 3d
       -0.02251473 0.10270272 -0.36055627 0.060848452
000110 64 df 84 bd bc 7f 49 3e 94 ce 66 be f1 50 29 be
       -0.06487921 0.19677633 -0.22539741 -0.16534783
000120 48 8e ed bd 7d 32 d8 3b 8f c5 b4 bc 7c f7 e0 3e
       -0.115994036 0.0065978155 -0.02206686 0.43938816
000130 31 c7 cc be 15 8d f4 3d 29 9f 12 be f0 f9 14 3e
       -0.3999572 0.11940972 -0.14318527 0.14548469
000140 a3 0b 5c 3d 7c 60 06 be b0 5b b7 3c 95 de 95 3d
       0.053722035 -0.13122743 0.022382587 0.07317845
000150 68 cd 1c bc c2 4a 88 3d 68 29 05 3d b6 b0 55 be
       -0.009570457 0.06654884 0.03251019 -0.20868191
000160 18 51 65 be d9 8c f4 3d a2 0b 6d bd 80 9c 14 be
       -0.22394216 0.11940927 -0.057872422 -0.14512825
000170 74 d0 5e 3d 1a 81 8d 3e 7e 3e a4 3e d0 29 46 3e
       0.054398015 0.2763756 0.32078928 0.19351888
000180 7d a9 88 be b8 b8 1f be ab 9c d9 bc dc 11 fc bd
       -0.2669181 -0.15597808 -0.026563963 -0.12308094
000190 86 0b 0c be c2 42 45 3e ce b7 27 be 22 01 43 be
       -0.13676271 0.19263747 -0.1637871 -0.19043401
0001a0 f5 ca cd be 82 70 4e 3d c7 9f d6 3e 6a 6c 09 bd
       -0.40193906 0.050400265 0.41918775 -0.033550657
0001b0 b5 a5 2c be 11 80 c4 3d 9a d9 44 be 3c 9d 36 be
       -0.16860087 0.09594739 -0.19223633 -0.17833418
0001c0 d2 49 cc 3d c6 6b 38 3c 7a 07 17 be d1 66 47 3e
       0.099750176 0.011256164 -0.14748946 0.19472815
0001d0 55 84 0c be 84 9f a5 bd 48 3b 9c bb 83 c4 5f be
       -0.13722356 -0.08087066 -0.004767809 -0.21852307
0001e0 80 8d 9c bd f6 30 1e be 0f 73 a2 3e b7 9f 3d bd
       -0.076441765 -0.15448365 0.31728408 -0.046294894
0001f0 d3 2a d4 bd c2 fb 00 be 3d c1 6c 3d 71 18 de bc
       -0.103597306 -0.12596038 0.057801474 -0.027111264
000200 9f 4c a4 bc d7 6a 5c bd 4b 7d 9f 3b 04 5e 39 be
       -0.020056067 -0.053812828 0.004867231 -0.1810227
000210 2f 35 d9 bd 76 3f 7d 3d 23 61 2e be 43 7a 0a 3c
       -0.10605847 0.0618281 -0.17029242 0.008452001
000220 31 92 e1 bd d4 fd 23 bd 07 30 c2 bd fd c1 ca be
       -0.11014212 -0.04003699 -0.09481817 -0.39601126
000230 a9 87 79 3d 69 54 f1 3c ff 8f 88 be ce c0 a9 bd
       0.06092039 0.029459195 -0.2667236 -0.08288728
000240 38 8e 24 bc 5f 80 35 3e 5a c5 86 bd d4 fd a3 bc
       -0.010043673 0.17724751 -0.065806106 -0.020018496
000250 7b d3 47 be e0 07 c5 3d 69 38 01 3d d6 1c 59 bd
       -0.19514267 0.09620643 0.031547938 -0.053006016
000260 a9 c8 06 be 8d f6 80 3e cd c0 30 be 43 ce c7 bd
       -0.13162483 0.25188103 -0.17261048 -0.09756138
000270 72 a3 71 3d 07 1e f8 be 36 db 8a 3e 6b 37 56 be
       0.058993764 -0.4846041 0.2712037 -0.20919578
000280 06 f4 46 be 66 8e 00 3e c0 a8 72 bd 0f 84 0c be
       -0.19429025 0.1255432 -0.059242964 -0.13722251
000290 e9 4d 51 3d 74 a8 15 3e 58 6d 66 3e ba e6 76 bd
       0.05109969 0.14615041 0.22502649 -0.06027863
0002a0 00 67 fa 3e 82 ab 20 3d e7 68 04 bf 09 ef 88 3c
       0.48906708 0.039226063 -0.5172257 0.016715543
0002b0 15 d3 97 bd a4 13 b0 3d f8 12 67 3d 7c c7 86 be
       -0.074133076 0.08597496 0.056414574 -0.2632407
0002c0 ad be 21 be 90 92 40 bd 25 d5 d6 bd 48 dc 4d bd
       -0.15795393 -0.047014773 -0.10489873 -0.050258905
0002d0 cf f3 44 bc 05 91 3a 3f a6 42 fa bd 66 56 b9 3d
       -0.012021019 0.7287753 -0.122197434 0.09049682
0002e0 9c 82 22 be c1 a5 5a bc 4c 24 72 be e2 bf 32 3e
       -0.15870136 -0.013345183 -0.23646659 0.1745601
0002f0 e1 95 73 bb bf fe 01 3e 45 03 0a 3e 5a dc 87 bd
       -0.0037168192 0.12694834 0.1347781 -0.066338256
000300 21 ab 6a be f8 46 24 3e 27 1e a1 3d d1 be 29 bd
       -0.22916843 0.16042697 0.07867079 -0.041441742
000310 74 1a 59 be fb d8 0a be bf a4 4a 3d 8f d4 6e be
       -0.21201497 -0.13559334 0.04947352 -0.23323272
000320 cd 11 f1 3b b7 68 1d bc af f4 46 3e cc bb eb 3b
       0.0073568583 -0.0096074855 0.19429277 0.007194018
000330 29 c7 82 bb 67 65 5d bc bf dc 86 3d 85 10 5d 3e
       -0.003991027 -0.013512946 0.06585073 0.21588333
000340 24 e0 ce bd 22 99 56 3e 60 d0 dd 3c f0 6b 10 bf
       -0.10101345 0.20956853 0.0270769 -0.564147
000350 fd cb 9c 3e cc 71 8e 3c 4e e3 c6 3e 0b 9d 99 bd
       0.3062438 0.017388247 0.38845295 -0.07500657
000360 ea 84 8b 3e 72 8f 6a 3e 0f 72 db 3b 32 f3 06 bf
       0.27249843 0.22906283 0.0066969465 -0.52714837
000370 89 25 ca 3e b3 b1 bf be b7 06 f3 be 59 cc 4e 3e
       0.39481762 -0.3744026 -0.4746606 0.2019514
000380 02 69 95 bd 24 95 49 bf d9 45 f6 bd 3e 95 ed be
       -0.07295419 -0.78743196 -0.12025041 -0.46402925
000390 8a 87 20 bd 85 b4 95 be dc 29 d0 3d f9 47 88 3c
       -0.03919176 -0.29239288 0.10164234 0.016635882
0003a0 db 8e c7 be 7e cd ef bc aa 26 77 be 3c 3f 92 be
       -0.38976178 -0.029272791 -0.24135843 -0.2856387
0003b0 97 bf 6e bd cc 3f 6e be 87 ef 02 3e 26 7d 7a be
       -0.058288183 -0.23266524 0.12786685 -0.24461803
0003c0 bc 0c 04 be 77 3e 9a 3e a4 0f 97 be 12 99 bc be
       -0.12895483 0.30125782 -0.2950412 -0.36835533
0003d0 a3 fb a0 3e a6 3a 83 be 80 1a 6d bf 80 88 c1 3d
       0.31441984 -0.25630683 -0.9261856 0.094498634
0003e0 83 84 0b bf ac 38 11 bc a3 9d 1a bd aa 9d 46 be
       -0.5449907 -0.008863609 -0.03774799 -0.19396082
0003f0 ae 7d 78 be 2d 7d 8a 3d 21 58 5b 3e 81 f0 97 3c
       -0.24266693 0.06762157 0.21420337 0.018547298

fc2.bias f4 [64]
000000 5c 33 15 be c6 78 e3 3d d9 5b 27 3e 7f fb 02 3c
       -0.14570373 0.1110702 0.16343631 0.007994532
000010 e2 b2 84 3e af a4 c7 be 86 0c c3 3d 30 9a 64 bc
       0.25917727 -0.3899283 0.09523873 -0.013952777
000020 1c 73 02 3f a0 49 22 3f c2 ed bf bd 95 df 08 3e
       0.5095689 0.6339359 -0.093715206 0.1336654
000030 53 f7 48 3e 38 80 0d be 50 84 14 be 9d cd ae 3d
       0.19625597 -0.13818443 -0.14503598 0.08535311
000040 c2 83 86 3e b3 ef cb bd 5e 1f 27 be f2 7c 93 3e
       0.26272398 -0.099578284 -0.1632056 0.28806263
000050 f5 a6 f6 3e ad 27 0a 3f a9 d9 32 be 9c 33 09 be
       0.48174253 0.5396679 -0.17465843 -0.13398594
000060 e7 b9 92 bd 69 1c 8c bd b9 09 e3 3d af ef a0 bc
       -0.07164364 -0.06841356 0.11085839 -0.01964554
000070 e7 e9 28 3d 5c d1 e4 bd 15 6e 37 3d e6 9e 13 3e
       0.04123869 -0.11172745 0.044782717 0.14416084
000080 db c4 b1 bb 58 5c 9d 3d a0 38 05 3d 3f 59 64 bd
       -0.0054250783 0.07683629 0.032524705 -0.055749174
000090 2a 31 9c bd ff 72 24 be bf b2 d4 bd db bc 2f 3b
       -0.07626565 -0.16059493 -0.103856556 0.0026815447
0000a0 2d 68 25 bd 3e 09 39 3f d6 40 15 3f 30 42 24 be
       -0.040382553 0.7227973 0.58302057 -0.16040874
0000b0 ec 11 29 3e d0 54 32 be 11 70 07 3f 57 d4 14 bd
       0.16510743 -0.17415166 0.52905375 -0.036335316
0000c0 59 67 f4 3d 52 18 86 3d 29 14 80 bd 0e 7b 27 3f
       0.119337745 0.065476075 -0.06253845 0.6542214
0000d0 5b c2 b9 3c 77 69 48 be f3 a7 e1 3e 36 83 60 be
       0.022675684 -0.19571482 0.44073448 -0.21925053
0000e0 5b 2c ab be c5 e1 16 be 94 e7 91 bd 24 2c 2a 3e
       -0.33432278 -0.14734562 -0.07124248 0.16618401
0000f0 75 08 90 3d af 1c 49 3e 86 38 1b 3e 31 d5 21 be
       0.07032863 0.19639848 0.1515828 -0.15803982

fc3.weight f4 [4, 64]
000000 04 d8 06 3f 57 28 a0 3e 08 14 9c 3e d7 88 2d 3c
       0.52673364 0.31280777 0.30484033 0.010591707
000010 d2 25 63 3e 3e c1 0b be 1f 42 8e 3e 9a 8a e1 be
       0.22182396 -0.13647935 0.2778482 -0.44051057
000020 ac c7 27 3e 2e d8 40 3e 64 ff 3d bd ae 45 b8 3d
       0.16384763 0.18832466 -0.046386138 0.08997665
000030 54 4b 45 3d 19 8e ca 3d 18 93 5a be 70 fd 25 bd
       0.04816754 0.09890384 -0.21345174 -0.0405249
000040 5d d4 85 3e e2 fe 2f 3e 62 7a 5f be 18 25 39 3e
       0.26138583 0.17187074 -0.21824029 0.18080556
000050 2c cb 14 3e ce c6 96 3e a9 43 15 bd 4f ed d5 bd
       0.14530629 0.2944855 -0.03644148 -0.10445654
000060 4a 14 b1 bd a6 3b 59 be 0e 8a 41 3c 9d d9 03 be
       -0.08646448 -0.2121416 0.0118127 -0.12875982
000070 25 c1 01 3e 94 2f 8e be 3a 01 59 bf de 82 b0 3d
       0.12671335 -0.27770674 -0.84767497 0.08618711
000080 27 27 5d 3d 30 53 cb 3e 43 87 f1 3d 95 95 86 3d
       0.053992417 0.39711905 0.11793377 0.06571499
000090 69 71 a0 3d 1c 78 27 be ef 7e d4 bd 45 e5 81 3e
       0.07834131 -0.16354412 -0.10375773 0.2537023
0000a0 7b 15 04 bf e0 db 55 3e 1a 84 18 3e 31 63 d1 be
       -0.51595277 0.20884657 0.14894143 -0.4089599
0000b0 1a 15 42 3e 00 80 44 3d 4e 73 7d 3e 60 ab 87 3e
       0.18953362 0.047973633 0.24751016 0.26497936
0000c0 ae 22 62 3e 45 9b 34 3e 5f 53 de 3e a5 25 3e 3e
       0.22083542 0.17637356 0.43422982 0.18569048
0000d0 b8 8a 6a 3e c8 09 72 be 4b 76 03 3e 13 d2 19 be
       0.2290448 -0.23636544 0.12838094 -0.15021543
0000e0 67 a0 29 be 66 04 0f be a1 09 38 bd 2b 8a 00 3e
       -0.16565095 -0.13966522 -0.044931058 0.12552707
0000f0 fc 0e 8b be 4b d6 d9 3d 60 58 e7 bc fe 28 a8 bd
       -0.2715987 0.10636576 -0.028240383 -0.08210944
000100 77 4f 04 3f 07 ac 93 3e b8 8b c4 3e 61 f0 cb 3e
       0.51683754 0.28842184 0.38387847 0.39831832
000110 f5 80 84 3e 75 5a 99 bc fa b0 62 3e 58 63 1d be
       0.25879636 -0.018719891 0.22137824 -0.15369928
000120 49 1c 14 3e 25 3f 51 3e 1f 01 4e be 49 ae cb 3d
       0.14463915 0.20434244 -0.20117615 0.09945352
000130 ae 7e f0 bc 2a f2 8f bc ee b6 c5 bd 99 03 21 3e
       -0.02935728 -0.017571528 -0.09654032 0.15724029
000140 46 67 40 3e 2d 3a b8 3e b4 14 39 bc db 19 0e 3e
       0.18789396 0.35981885 -0.01129644 0.1387705
000150 9f 62 4a 3e f3 64 64 3e a5 e7 07 3e c0 5f dc bd
       0.19764183 0.22304134 0.13271959 -0.1076045
000160 94 7a ec 3d 02 76 63 be 9b 14 7a 3e cf dd 12 bf
       0.115468174 -0.22212985 0.24421923 -0.57369703
000170 de e3 8f 3e f3 ca 8c bd da 7c 89 3e 7f ab 38 3e
       0.28103536 -0.06874647 0.26853067 0.1803417
000180 a2 23 5d 3c 04 c8 09 3f ec cb 81 3c 43 cb ce be
       0.013497265 0.53820825 0.015844308 -0.4038945
000190 e0 2a ca 3d 91 01 23 be 64 61 0b bd 32 44 a4 3e
       0.09871459 -0.15918566 -0.034028426 0.3208328
0001a0 c4 3e 24 3c 44 50 7e 3e 0f ee 23 3e 5c 21 88 be
       0.01002473 0.24835306 0.16008781 -0.2658795
0001b0 e7 07 c4 3d 8f 4c 16 bd a0 0c 6c 3e de 32 a4 3e
       0.0957182 -0.036694106 0.23051691 0.3207006
0001c0 62 50 95 3e 28 46 14 3e 84 79 22 3f de 5c 10 3e
       0.2916289 0.14479887 0.6346667 0.14097926
0001d0 7e 37 86 3e 6d 10 08 be 3f 4e e3 3d 04 6f ec bc
       0.26214212 -0.13287516 0.11098909 -0.02886153
0001e0 ad 4f aa be af 2a f8 be 48 44 ac bd 68 ce 7d 3d
       -0.33263913 -0.48470065 -0.08411461 0.061964422
0001f0 53 d2 c2 bd 74 eb e1 3d e3 41 24 3e c8 cb 2d be
       -0.095127724 0.11031237 0.16040759 -0.16972268
000200 ad 34 5e 3f 9d b4 14 3e ed 3a b9 3d 1d 28 17 3c
       0.86799127 0.14522023 0.09044442 0.009225872
000210 bc 32 a0 3e 05 43 56 be 6d f2 9e 3e 28 e7 b1 bd
       0.31288707 -0.20924003 0.3104433 -0.08686668
000220 db 34 07 3e 97 6f 2f 3e 49 79 03 bf 23 1a 2b 3f
       0.13203757 0.17132412 -0.5135694 0.66836756
000230 e9 6a b8 3e 34 da 38 be 3c 88 83 be c5 86 3c 3e
       0.36019066 -0.18051988 -0.25689876 0.18410785
000240 eb 9f 96 3e 8b 1e f5 bd 89 48 fc bc fc 14 14 3c
       0.29418883 -0.11968716 -0.030796306 0.009038206
000250 03 ce b2 3d 36 47 ac 3e 3c 34 88 3c e5 89 73 3d
       0.087307 0.3364808 0.01662647 0.05945768
000260 5d b3 e0 3e a2 f2 be bd 99 e9 c1 3d 53 1e 98 bd
       0.43886843 -0.09323622 0.09468383 -0.07427659
000270 90 51 4d 3e 92 bb 39 be 43 cb e2 bc 95 f5 05 bd
       0.20050645 -0.18137959 -0.027684813 -0.03270491
000280 d0 49 82 be cc 59 9f be c9 b9 55 3e 47 9f 27 be
       -0.2544694 -0.31123197 0.20871653 -0.16369353
000290 60 83 a4 be 04 8b ac bd ce 95 11 be c8 ad 31 be
       -0.3213148 -0.084249526 -0.14217302 -0.17351449
0002a0 b0 fe 25 be 5d 60 61 3e a7 67 67 3e 6e 61 0c be
       -0.16210437 0.22009416 0.22598134 -0.13709041
0002b0 24 70 84 3d bc 9e 78 bd d7 29 5a 3e b7 ba 09 3f
       0.064667016 -0.060698256 0.21305023 0.5380053
0002c0 04 95 a3 3e ba 0a 04 3e e9 9c c5 3d 17 4e 83 3e
       0.31949627 0.12894717 0.09649069 0.25645515
0002d0 ce 86 a3 3e 0d d1 56 3e bc ff 30 3e 53 21 80 3c
       0.31938785 0.20978184 0.17285055 0.01564089
0002e0 de e0 99 be 01 4e bf 3d 0c a5 86 3e 51 22 22 3e
       -0.30054373 0.0934105 0.26297796 0.15833403
0002f0 a8 de 55 be 06 b1 37 3e 31 00 96 be 9b ac 28 be
       -0.20885718 0.17938623 -0.2929702 -0.16472094
000300 6b 35 cb bd 4d 0b 81 3e 7f 70 e8 3d b2 60 b3 be
       -0.09922298 0.25203934 0.11349582 -0.3503471
000310 70 e4 cd 3c 2f 58 25 be dd 66 2f 3e 9a d6 9a 3d
       0.025133342 -0.1614692 0.17129083 0.07560463
000320 c2 81 2a 3e 25 30 86 3e 8b 83 2b 3d ac 74 00 3c
       0.16651061 0.26208606 0.041873496 0.007840317
000330 0b aa 60 3e d9 bf 0f 3e aa c8 87 be 11 6a b6 3d
       0.21939866 0.14038028 -0.26520282 0.08906949
000340 87 a1 4e 3e 56 a6 2a 3e 5f 06 09 bd b2 07 f8 3d
       0.20178805 0.16665015 -0.03345334 0.12110843
000350 2a 0f 01 3e ad 4b ad 3e 9f b4 fd be ac 1f a1 3d
       0.12603441 0.338468 -0.49551865 0.07867369
000360 98 f7 3f 3e f8 ec 8f be 28 ee 2f bf 6e a3 71 3e
       0.18746793 -0.2811048 -0.6872277 0.235975
000370 a5 41 2d 3f cb f2 75 3e 96 78 8a be e9 88 f8 3d
       0.6767829 0.240184 -0.27045125 0.121354885
000380 69 73 d4 be 55 04 67 3f 64 12 c9 ba 86 cc ca be
       -0.414943 0.90240985 -0.0015340564 -0.39609164
000390 01 97 0e bf 9f a5 2c 3e 66 83 cc 3d b7 ff b3 bb
       -0.55699164 0.16860054 0.09986 -0.00549313
0003a0 ee 7e 52 be 86 33 7c 3e a3 02 5c 3e 9d d2 98 bd
       -0.20556232 0.2462903 0.21485381 -0.07462046
0003b0 4e 1a 86 3e f4 66 aa be 97 e7 3e 3e a0 3e 3d 3e
       0.26191944 -0.33281672 0.18643032 0.18480921
0003c0 ea 02 01 3e 19 14 f2 3d c9 01 09 3f 9f 42 3d 3e
       0.12598768 0.118202396 0.5351835 0.18482445
0003d0 bf b7 a6 3e 50 67 2c be bd a0 16 3e e5 12 22 3e
       0.32562062 -0.16836286 0.14709754 0.1582752
0003e0 cb c8 85 be a5 02 39 bd ef 6b 57 be 90 23 b4 bc
       -0.26129755 -0.045168538 -0.21037267 -0.021989614
0003f0 a8 68 66 3e d8 f0 63 3e c9 1e 4a 3e b3 4c 8f 3e
       0.2250086 0.22259843 0.19738306 0.27988204

fc3.bias f4 [4]
000000 4e 91 01 3f 8d ee bb 3e c0 40 9f 3e 39 50 a7 3e
       0.5061234 0.36705437 0.31104088 0.32678393
